model.tflite (tflite, 147040 bytes, 10 tensors)

sequential/dense/StatefulPartitionedCall/StatefulPartitionedCall/MatMul/ReadVariableOp/transpose f4 [100, 192]
00000000: fddd 983e 0700 8bbd 5c60 8a3d 00bb 75ba
00000010: d8f6 d13c ee5c 10be 282b 58bd ac25 47bd
00000020: 7e92 d13d fad7 ccbd b696 fc3d f2d4 32bd
00000030: eaf0 df3d e005 0cbc f83f 803d f0df 643c
00000040: f019 88bc 80f2 55bb d8e6 883d f967 103e
00000050: 5801 8fbd 7020 80bd d9c0 91bd 2468 d5bc
00000060: 90de c43c 801b 613c ce04 04be 9c6c e0bc
00000070: 2776 123e 8aef 843d a0a1 6d3d 10e2 a7bd
00000080: 4a82 8dbd f8c8 cb3c 4038 03bb 87be 8dbd
00000090: e8d2 e73c acdc be3d eaf7 a33d 7c37 c6bd
000000a0: a6bf f13d 6f8f a9bd b969 043e c0ba 7bbd
000000b0: 640d 293d 608e ddbb 12b2 e43d e498 9dbc
000000c0: 86bb 98bd c063 a73b d81b b73c ba10 38bd
000000d0: 51a5 a1bd e8be d33d f65d 833d 4036 73bd
000000e0: 58d0 a03d 2444 d63d 9a2d f53d 00af d9bd
000000f0: 6ae7 c13d 1424 73bd 60f3 e5bb 6ca1 753d
00000100: 1809 f1bc 3f39 10be d006 54bc b4f8 073d
00000110: 1d01 073e 0030 9cbb ffa3 f9bd b282 8ebd
00000120: 50d2 353c 32d4 3ebd 3e13 17bd 2d58 0bbe
00000130: c03a 913c 1850 dc3c 349d dabd a673 fd3d
00000140: 25a8 0c3e 377b 023e 720b b1bd a8a4 d6bc
00000150: dc51 18bd c6af 2abd 509b 09bc b624 f53d
00000160: 7039 73bc 2349 0dbe b44e 46bc e0ef 293d
00000170: 2a59 183d 641d 90bd 6880 353e 7fbc ee3d
00000180: eac5 67bd 0031 2ebb 8cfd 42bd e0b7 fb3b
00000190: 4c86 dcbd c246 c9bd e547 06be b6bb cc3d
000001a0: 3001 f4bc a2e3 ba3c 78a0 693e 76fc e03c
000001b0: 9a70 03be d0d5 00bd 6c6c 8d3c 4aab ecbd
000001c0: 32b8 7dbd 2c4e 973d 8d93 9dbd eb33 743e
000001d0: aaa0 d2bd 7b06 c3bd 2edd 1b3d d425 dcbd
000001e0: e074 fd3c 201d fb3d 42a1 e73d 7ccd 65bd
000001f0: 44b4 2b3d 9456 523d be66 2ebc accc ed3d
00000200: d24e cabd a070 dcbb 684b 3cbe ce7f 9e3d
00000210: 545f c7bc d80e c83c 3406 d5bd 0ef3 09be
00000220: e661 963d 7144 963e 02db 0ebe d006 04be
00000230: e022 d0bd 6873 2dbd b0f2 fbbd b7ed 06bd
00000240: 1be6 073e 6067 0cbc 1434 0bbe 60c3 e1bb
00000250: 4f42 a5bd fd2c 0d3e 424e 0abe 9f37 ed3d
00000260: 20e2 383d 4bb6 12bd 35aa 2c3e 98a4 903d
00000270: 6dfe 6bbd c637 66bd 4076 243e 6fa5 e03d
00000280: 94c7 03be 0817 cd3c 6c89 12bd d278 af3d
00000290: aceb 793d 0c88 a2bd a56f 913c 6244 66bd
000002a0: 78e4 b63c b26d 813d 66b0 b7bd bfc5 053e
000002b0: ec71 82bc ef22 783c 1184 b03d 7c8c dd3c
000002c0: c689 41bd c036 6b3c ee9a e0bd 9040 213c
000002d0: 70f2 c5bc 36ba 003d 3c40 24bd 0f6f be3d
000002e0: ee86 06be 86a2 c4bc 0331 343d 04c7 afbd
000002f0: cc64 f3bc 4f91 03be b3b9 4fbd 8e4b 39bd
00000300: bca5 2c3d c15b a43d 805b 133d 6eac 2ebd
00000310: 9446 5b3d 25d2 013e 0161 b1bd 50ea 693d
00000320: c00b a8bb 023e 45bd d6d6 e43d f3dd 0c3e
00000330: 3bfd d2bd 1605 03be da07 26bd 4456 a53d
00000340: b4bf c33d f421 aa3d 77b8 093e 7a65 20bd
00000350: de8c 36bd 00f9 61bb c0bd 36bd 4a49 a23d
00000360: ea9f f83d 604e 173d 469b b0bd d8ee 783d
00000370: 0f39 edbd c052 8ebb 993a 013e dea0 d63d
00000380: 9aec 8c3d dccd 353d 1060 143d 641c c5bd
00000390: 4e95 8bbd 6fda 91bd b0a1 17bd 83b0 02be
000003a0: ab59 0d3e f960 0e3e e854 8b3d 14a5 e3bd
000003b0: fee5 ffbd ee6f 973d ee50 ecbd ea09 7abd
000003c0: c2c4 30bd ca27 9ebd ad9f 8cbd b677 efbd
000003d0: 146e a73d 23e1 b7bd 72e1 cf3d 409f 78bb
000003e0: a678 b33d 3691 21bd 4250 f6bd 68af babc
000003f0: cfc9 83bd bce8 743d 68d2 9b3c 14b8 203d
0.29856864 -0.067871146 0.0675666 -0.00093738735 0.0256304 -0.1409795 -0.052775532 -0.04861991
0.10233019 -0.10002132 0.12333433 -0.04366011 0.109346226 -0.008546323 0.06262201 0.0139694065
-0.01661393 -0.0032645762 0.06684655 0.14102162 -0.06982678 -0.06256187 -0.07116861 -0.026050635
0.024031907 0.013739467 -0.12892458 -0.027395539 0.14302884 0.06491001 0.058015466 -0.08197415
-0.06909616 0.024876103 -0.0020022541 -0.06921106 0.02829881 0.093194336 0.0800627 -0.096785516
0.11804132 -0.08279311 0.12930955 -0.061457396 0.041272536 -0.006761357 0.11166777 -0.019237943
-0.07457642 0.0051083267 0.022352144 -0.044937827 -0.0789286 0.10339147 0.06414406 -0.05937791
0.078522384 0.104622155 0.119715884 -0.10629082 0.09467967 -0.05936058 -0.007017538 0.059968397
-0.029423282 -0.14084338 -0.012941077 0.033196166 0.13184018 -0.0047664642 -0.12189483 -0.06958522
0.011097506 -0.046589084 -0.036883585 -0.13607855 0.01772821 0.02689366 -0.10674515 0.12375574
0.13736017 0.12742315 -0.08644761 -0.026201561 -0.037187442 -0.041671537 -0.008398846 0.11969893
-0.014845237 -0.1379743 -0.012103725 0.04148853 0.03719441 -0.07036856 0.17724764 0.116570465
-0.05658523 -0.00265795 -0.047605082 0.0076818317 -0.107678026 -0.09827949 -0.13113363 0.099967405
-0.029785722 0.022813622 0.2281512 0.027464133 -0.12835923 -0.031453907 0.017263614 -0.11556108
-0.06194324 0.07387957 -0.07694159 0.2384793 -0.102845505 -0.095227204 0.03805273 -0.10749403
0.03093952 0.122614145 0.11310054 -0.05610417 0.04191996 0.0513521 -0.010644613 0.11611304
-0.09878315 -0.006727293 -0.1838814 0.077392206 -0.024337448 0.02442114 -0.10401574 -0.13471624
0.073428914 0.29349092 -0.13950732 -0.12893224 -0.10162902 -0.042346388 -0.12302148 -0.032941546
0.13271372 -0.008569568 -0.13594085 -0.0068897456 -0.08069288 0.13786693 -0.13506415 0.115828745
0.045137525 -0.03581838 0.16861804 0.07062644 -0.057615686 -0.056205533 0.16060734 0.10969054
-0.12869102 0.025035396 -0.035775587 0.085679665 0.06101577 -0.07936105 0.017753432 -0.05621756
0.02232574 0.06319751 -0.08969192 0.13063715 -0.015923463 0.015145048 0.0861894 0.027044527
-0.04725053 0.014356315 -0.109670505 0.009842053 -0.024163455 0.031427585 -0.04010032 0.092985265
-0.13137409 -0.024003278 0.043992054 -0.08582881 -0.02971115 -0.128484 -0.050714206 -0.04523807
0.042150244 0.08025313 0.035975933 -0.04264491 0.053534105 0.1267782 -0.0866108 0.057108223
-0.005128354 -0.04815484 0.11173789 0.13756542 -0.10302206 -0.12794909 -0.04053483 0.080730945
0.09558049 0.08307257 0.13449274 -0.039159276 -0.044567935 -0.003448069 -0.044614553 0.07924135
0.12139876 0.03693998 -0.08623366 0.060774654 -0.11583149 -0.0043433607 0.1262001 0.10479902
0.06881066 0.044385776 0.036224425 -0.09624556 -0.06815587 -0.07121741 -0.03701943 -0.12762646
0.13803737 0.1390418 0.06803304 -0.111154705 -0.124950394 0.07394396 -0.115388736 -0.06104461
-0.043156393 -0.07722433 -0.06866393 -0.11692755 0.081752926 -0.08978488 0.10150422 -0.0037936717
0.08763246 -0.039445125 -0.12027027 -0.022788718 -0.06434976 0.059792265 0.019021228 0.03923805

sequential/dense/StatefulPartitionedCall/StatefulPartitionedCall/MatMul_bias f4 [100]
00000000: aca8 92be cf13 6d3d 3819 4cbd 4cbf 3abe
00000010: 5ae3 92be 5fd8 02bf 4c01 a4be e97d c9bd
00000020: 1bfd 1f3e 51e9 39be 1cf0 02be 0146 b3be
00000030: fb08 3dbe ebc4 68be a517 a4bd efe5 173e
00000040: be6b 06be 4dd8 8cbe 4483 6dbc c2ce c2bd
00000050: d5eb 4abd ff0f 483d 9ad8 123d f40d a6be
00000060: 2981 9c3e ab88 0dbf e979 5abe 467d 96be
00000070: 60b3 223e 97df 5fbe bc76 a7be 70dd adbe
00000080: 2344 edbd d44a 253d 6e4f f4bd 6d3a 3fbe
00000090: faf2 abbd f9bf dfbd b6c1 8ebe a48c 76be
000000a0: 8f24 7fbe b8d2 5cbd b59b 2cbd 41ae 80bd
000000b0: 306c b3bd 5099 8b3d 2e29 f03d c638 0abe
000000c0: 72e1 a4be 70c3 87be 7eed 87be ec2f be3c
000000d0: 198b 91be 3b1e a9be 7b6d 64be e283 57be
000000e0: 69ff 3cbe 4de6 cbbe ec4b 27be a5d3 a6be
000000f0: 374e 80be 2829 7bbe ef18 40be a541 8dbd
00000100: 1657 9fbe dcb9 bfbd 7015 71be 43c3 0bbe
00000110: 7068 e93d 3719 f53c b883 cebd 4297 a7be
00000120: 4df0 343e 8354 a2be 39c1 fbbd 7a50 babc
00000130: fdd4 91be 11ea 65be c849 83be 2e9e 29be
00000140: fe3b bebe 1037 b4be 87ef 73be 7962 ee3c
00000150: 9af1 b4be b06a 883d 239c 44be f5b6 ecbd
00000160: b4eb 70bd dc40 7cbd 7140 5dbe cc1f 443c
00000170: 5085 87be c8fe 98be 79c2 d7be 3da4 23be
00000180: 22cd 33bd 7428 a8be d48b 78be 8402 5d3e
-0.2864431 0.05788022 -0.049828738 -0.18237036 -0.2868908 -0.51111406 -0.3203224 -0.098384686
0.15623896 -0.1815541 -0.12786907 -0.35014346 -0.18460457 -0.22731368 -0.08012322 0.14833806
-0.13127038 -0.27508774 -0.014496628 -0.09512092 -0.049541313 0.04884338 0.0358511 -0.3243252
0.3056729 -0.55286664 -0.21335568 -0.2939245 0.15888739 -0.21862637 -0.32707775 -0.33958006
-0.11585262 0.040354565 -0.119292125 -0.18674631 -0.083959535 -0.10925288 -0.27882165 -0.24077088
-0.2491629 -0.053911895 -0.04214068 -0.06283236 -0.087608695 0.068163514 0.117266044 -0.1349822
-0.3220325 -0.26516294 -0.2654838 0.02321621 -0.28426436 -0.33030877 -0.22307388 -0.21046403
-0.18456806 -0.39824143 -0.16337556 -0.32583347 -0.25059673 -0.24527419 -0.18759511 -0.06897286
-0.3112113 -0.09361622 -0.23543334 -0.13648705 0.11396873 0.02991925 -0.10083717 -0.32732588
0.17669792 -0.31705102 -0.12292714 -0.022743452 -0.2848281 -0.2245257 -0.25642228 -0.16564247
-0.37155145 -0.3519826 -0.23821841 0.02909969 -0.35340577 0.06660974 -0.19200186 -0.11558334
-0.058818534 -0.061585292 -0.21606614 0.011970472 -0.26468897 -0.29881883 -0.42140558 -0.1598062
-0.0438968 -0.32843363 -0.2427209 0.21582991

sequential/dense_1/StatefulPartitionedCall/StatefulPartitionedCall/MatMul/ReadVariableOp/transpose f4 [100, 100]
00000000: 38ad 89be 6da1 67be dec8 69be 2a3b 173e
00000010: 7fbd 08be 0166 bd3d 2a9a a0bc 3dba e2bc
00000020: bd08 92be 9819 88be 1655 a23c d553 423d
00000030: 498c 0c3e a215 a43c 4bf9 7abe 10d2 d4bd
00000040: 4cb1 debd 2980 c03d cf10 27be 4ae5 8bbd
00000050: 6247 41be 616d 45be da59 57be 9b0c 9ebc
00000060: 2f42 d0bd ec7e 943d 91db 21be 2db6 c2bd
00000070: 9a24 00be 6e42 c8bc 917f 033e d34a 29be
00000080: fc87 4ebe 7221 3fbc 6557 9abd 4820 933c
00000090: 17e7 48bd 4315 77be 83c6 d1bd 152d b73d
000000a0: 41f9 95bc e133 22be 9c87 d5bd 3dea 09be
000000b0: 67c3 413c 9aa9 5c3c 73e7 9abe 6cfb c73d
000000c0: 2368 29be beb5 413e 93d5 27be 7b8d 643b
000000d0: c364 0fbe 824f 20be 79e3 193d b7ed 643e
000000e0: 3ac8 28be 5c84 863d 776b 2bbe 3501 83bd
000000f0: c0fe d6bd 85d6 6fbd ef75 3abe f620 383d
00000100: 1a70 173e dbf8 1f3d 6d52 a23c 1817 e8bd
00000110: f267 c239 d48a 103e c745 74bd cfcf a9bc
00000120: 7700 923c 20e4 4fbd ce39 a93d 458b a03d
00000130: bf96 143e 5e5a bdbd ef04 afbd 94f0 b43d
00000140: e57c 383e dacf 8a3c a32b 5ebe d039 583d
00000150: c322 833d 7668 85be f524 b13d 2eca 45be
00000160: db12 953d b2a3 f3bd 4fe4 bebd 8ccb e0bc
00000170: 43fc 73be c820 8abe a300 e1bd 881a 883e
00000180: 71ab cf3d 17bb e9bd caf7 94be 29d7 c9bd
00000190: 4f9c 1dbe de03 9b3e 5b27 903e c8ef 153f
000001a0: c739 963d 82bd 553d 8b40 8abe 2177 6c3e
000001b0: af36 0cbf a67e 85be 210e a53e b5d6 0d3e
000001c0: 696f 523e 6e1b 793d 2e36 c43e ad88 17be
000001d0: a103 943e adde 253e fc76 a03e 30f0 20bd
000001e0: ca1e 03bf d5c2 afbe 4403 a8be b019 3c3e
000001f0: beaa 01be f8c5 67bc 92c8 b2be e32e 8fbe
00000200: cef7 f13e 6089 88be 752c 633e 1dc0 24be
00000210: 4d52 c3bd 84a8 c6bd b77e 7abe 34e4 05be
00000220: 8437 8f3c 73ca 4cbd ffb8 8e3e d177 0f3d
00000230: 8644 90bd 1de0 e4be a35c f83d f408 0c3f
00000240: e9ee d2be 4590 24be 43a3 8bbe c1f4 c83e
00000250: e49d 17be 1bc3 0cbf 2c5f 5ebe c35a d63d
00000260: 1f94 cf3d 0ae5 4c3e 98cc d03d 407a 153d
00000270: ca95 d9bc c80e f53e ddd5 61be d0cb ccbe
00000280: d3c2 963e dffc 033f 2901 013e 789c 94be
00000290: c193 7d3d 32a3 e93e b19d c53e 925a 9c3d
000002a0: 0dc2 f9bd 28b9 72be 4568 6dbe 0dc4 6cbe
000002b0: d8e5 233e 83b9 143e 7a4a f9be 71e7 dbbc
000002c0: 2d51 0fbc a8ba 513e 8e65 9e3e bb8a ecbe
000002d0: b434 a23c 0131 aebe c359 eabd 9213 0abf
000002e0: c432 f63d 413e dcbd 92aa f33e 6500 79be
000002f0: 6016 27bf dd23 0fbe bae3 203e 9d43 d5be
00000300: b694 033e 1500 2f3d 4f11 a9be 6f74 29be
00000310: af1a b33e 512a 62be 551e cbbd c5ce 85be
00000320: eadd ebbb 9f62 2d3e b6d7 88bc 8f2d 54be
00000330: 50ef 90be ba99 423c 0881 77bd a030 65bd
00000340: 4058 e8bc b858 dbbd b42b af3e 13c1 3ebe
00000350: c39c 8a3e d03f 673d d62f 42bd 4815 dcbe
00000360: a6fe 443d fa03 c0bd ccfb ce3d dbbb 29be
00000370: 39cf 5abe fc84 713d 4243 083d 5e74 49be
00000380: 612b 7a3c 11a6 eebd ee1b 3bbd 8789 ddbe
00000390: 5575 5abe fb93 bdbe df39 52be db48 95bd
000003a0: 0ad7 57be 494c f4bb f221 28bd cc95 e13d
000003b0: 6e80 babe 9426 433e e048 333d 89b6 5ebd
000003c0: a06a 5bbe 9ac2 21be 3583 83bd 8a71 843e
000003d0: dd2b 733d 9164 293e d4fa 72be eadc 34bd
000003e0: 6a9f 87be 1a8c 033e 3bc9 5fbc 9ab7 b23e
000003f0: 1805 e4be 065b 1cbe ed0d cbbd 8435 01be
-0.26889968 -0.22620173 -0.22830531 0.14768663 -0.13353537 0.09247971 -0.019604761 -0.027676696
-0.28522292 -0.26582026 0.019815963 0.04744323 0.1372539 0.020029847 -0.2450916 -0.10391629
-0.108736604 0.093994446 -0.16315006 -0.06830843 -0.18874887 -0.19280006 -0.2103037 -0.01929312
-0.101688735 0.07250771 -0.15806414 -0.095074035 -0.12513962 -0.024445739 0.12841631 -0.1653245
-0.20169061 -0.011665689 -0.075362004 0.017959729 -0.04904851 -0.24129204 -0.10242941 0.089441456
-0.01830733 -0.15840103 -0.10426256 -0.13468261 0.011826373 0.013468171 -0.30254707 0.09764752
-0.16543631 0.18916985 -0.16390066 0.0034874368 -0.14003281 -0.1565533 0.03757045 0.22356306
-0.1648263 0.06568214 -0.16740213 -0.063967146 -0.104978085 -0.05855419 -0.1820905 0.04495331
0.14788857 0.039055686 0.019814694 -0.1133253 0.0003708001 0.14115459 -0.059636857 -0.020728974
0.017822487 -0.050754666 0.082629785 0.078390636 0.1451063 -0.09245752 -0.08545863 0.08834949
0.18016393 0.016944814 -0.21696334 0.05278951 0.06403115 -0.2605626 0.08649627 -0.19315407
0.07278987 -0.11896457 -0.0932089 -0.027440809 -0.23826699 -0.26978135 -0.109864496 0.26582742
0.10140122 -0.11412638 -0.29095298 -0.09855492 -0.15391658 0.30276388 0.28155026 0.58569
0.07335239 0.05218268 -0.27002367 0.23092319 -0.5477094 -0.26073188 0.32237342 0.13851435
0.20550312 0.060817175 0.38322586 -0.14798231 0.2890902 0.16198225 0.31340778 -0.03929156
-0.51218855 -0.34328333 -0.3281499 0.18369174 -0.12662789 -0.0141463205 -0.34918648 -0.2796546
0.47259372 -0.2666731 0.22184928 -0.1608891 -0.09537182 -0.097001106 -0.244624 -0.13075334
0.017482527 -0.049997758 0.27875516 0.035026375 -0.0704432 -0.44702235 0.12127044 0.5470116
-0.411979 -0.1607066 -0.27272996 0.39249232 -0.14806324 -0.5498521 -0.21715993 0.1046653
0.10135674 0.20009246 0.10195273 0.03649354 -0.026560683 0.4786284 -0.22054239 -0.39999247
0.29445514 0.51557726 0.12598099 -0.29025626 0.061908487 0.4563232 0.38596871 0.076344624
-0.121952154 -0.23703444 -0.23184307 -0.23121662 0.16005647 0.14523892 -0.48689634 -0.026843758
-0.008747381 0.2048136 0.30936855 -0.46199593 0.019800521 -0.34021762 -0.11442902 -0.5393611
0.120214015 -0.107540615 0.47591072 -0.24316557 -0.65268517 -0.13978525 0.15711871 -0.41653147
0.12849697 0.042724688 -0.33021018 -0.16548322 0.34981295 -0.22086455 -0.09917895 -0.26134315
-0.007198085 0.16932152 -0.016704421 -0.20720504 -0.2830758 0.011877472 -0.06042579 -0.055954576
-0.028362393 -0.10710281 0.3421303 -0.1862834 0.27072725 0.05645734 -0.0474089 -0.42984986
0.048094414 -0.093757585 0.1010662 -0.16575567 -0.21368112 0.058964714 0.033267267 -0.19673297
0.015269131 -0.116527684 -0.045680933 -0.43268988 -0.21333821 -0.37026963 -0.20529889 -0.07289287
-0.21078125 -0.007455383 -0.041047998 0.110148996 -0.3642611 0.19057685 0.04377067 -0.054373298
-0.21427393 -0.15796891 -0.0642151 0.25867873 0.059368003 0.1654227 -0.23728496 -0.044155993
-0.2648881 0.12846413 -0.013658817 0.34905702 -0.44535136 -0.15269098 -0.099147655 -0.12618071

sequential/dense_1/StatefulPartitionedCall/StatefulPartitionedCall/MatMul_bias f4 [100]
00000000: 480c dfbd f7b9 18be 213d 29be 7264 8bbe
00000010: cc62 9fbe fa9d 97be a886 7ebe e330 0ebe
00000020: fd69 3bbe 355f c4be 73a3 c5be 6b17 58be
00000030: 96ea 5f3e d8ff d0be 6710 9dbe 4075 b83e
00000040: 0204 9cbe 5fac afbe 4e60 723c d76d cdbd
00000050: 690f 21be 1680 abbe 2688 69be 9304 99be
00000060: cf2a a6be a1bc 58be e4c7 54be 07a5 66be
00000070: 4a25 21be f1ca ccbe 26bb a9be f2d4 7bbe
00000080: 4eee f1be f847 bfbd 4b62 cd3c 38af a3be
00000090: 2221 f2be e802 25be f7fd bebe 4483 24be
000000a0: f297 aabe 58d4 01bf d42c eb3a 6a8c 77be
000000b0: 4ed4 dabd 15f2 883d 08cc 29be 3cc3 9bbe
000000c0: 1c22 8ebe 8732 5a3d 022d b5bd cd93 54bd
000000d0: c175 62be 08b4 9d3c f16f 31be 71cc 4abe
000000e0: fe6b c4be f9f7 2bbe 2efc 97be de1e 1abe
000000f0: 12ef e0bd dd98 313d ddf5 a7be 20b8 e0bd
00000100: defd bdbe b438 d7bd 9a60 eebd 4eaf dfbd
00000110: b779 36bd cbdb 4cbe f626 cebd 8246 a6be
00000120: 05f6 33be ace9 a0be 4260 0ebf 323b 7dbe
00000130: 3146 ccbd 213f 28be 76d2 94be 8d92 4cbe
00000140: ff00 073e fc99 31be e8ec 89bd cc5a b3be
00000150: bb6b 97be 3fc3 91be c754 d83d fb41 bcbe
00000160: 47f2 f73d e693 4bbe 13a2 2bbe aed4 2e3e
00000170: 5a50 09be 6ecb 813e 1418 09be 2db7 a4be
00000180: 8303 4ebe 6dfc abbd b7d5 84bd 48f6 2ebe
-0.10891014 -0.1491469 -0.16527225 -0.2722507 -0.31130064 -0.29612714 -0.24856055 -0.13885836
-0.1830215 -0.38353887 -0.38601264 -0.21102683 0.21866831 -0.40820193 -0.30676576 0.36026955
-0.30471808 -0.34311196 0.014793469 -0.10030716 -0.15728535 -0.3349616 -0.22805843 -0.29886302
-0.32454535 -0.21165706 -0.20779377 -0.2252389 -0.15736881 -0.39998582 -0.33150595 -0.24592951
-0.47252125 -0.09339899 0.025071284 -0.3196962 -0.47290903 -0.1611439 -0.37303135 -0.16065699
-0.3331905 -0.50714636 0.0017942437 -0.24174657 -0.10685025 0.066867985 -0.16581738 -0.3042239
-0.27760398 0.053270843 -0.08846475 -0.051898766 -0.22115232 0.019250885 -0.17327859 -0.1980455
-0.38363642 -0.16793813 -0.29684585 -0.15050837 -0.10983099 0.043358672 -0.32804766 -0.10972619
-0.37107748 -0.10508862 -0.11639519 -0.109221086 -0.04454967 -0.2000572 -0.10066025 -0.32475668
-0.17574318 -0.31428277 -0.5561563 -0.24729612 -0.099743254 -0.16430332 -0.2906682 -0.1997778
0.13183974 -0.17343897 -0.067346394 -0.3503021 -0.2957438 -0.28469273 0.10563045 -0.3676909
0.121067576 -0.19880638 -0.16761045 0.17073318 -0.13409558 0.25350517 -0.13388091 -0.32171002
-0.20118527 -0.08397756 -0.06486075 -0.17086136

sequential/dense_2/StatefulPartitionedCall/StatefulPartitionedCall/MatMul/ReadVariableOp/transpose f4 [50, 100]
00000000: dcd1 f9bd c0ec 36bd 7aa1 5a3e 72ea a5bc
00000010: 5311 033e 5533 8fbe cfd7 533d 907b a8be
00000020: 9aa6 94be 242e 3ebe 3de2 2cbd 376c 74be
00000030: e5aa 42be 6fd2 d1be a23f e53e 6072 16be
00000040: d099 67be 284c d33d cad0 cc3a 57fa d3bd
00000050: d33d 0dbe 0b98 4a3e 7ad2 0cbe dfe8 333e
00000060: a91e 653d f347 d3be ee8f 8c3d de7d 8ebd
00000070: 6478 5e3e f576 23bf 1d91 7ebe 9926 103e
00000080: 130b 0bbe 6560 7d3d 948f 97be c375 83be
00000090: 2a62 443e 7a0a 713d 0224 843d c3f4 dabd
000000a0: da97 39be bc42 ddbe 8daf 14bd 5c90 b2be
000000b0: 46fe 31be 7d76 4a3d 315a 14be fb1a 76bd
000000c0: aa2d 403e 297a e13e 1822 d83c d0f7 47be
000000d0: 9a52 0bbf 10b5 03be 631b cc3c a413 b83e
000000e0: c2ac 81be f4af 85be f315 8abd 4714 263d
000000f0: 6d8d cd3d 0a07 59be 8001 e4be c359 a5bb
00000100: cdd9 dfbe a64a 1b3e fc77 d6bd 84ef 343e
00000110: 2015 2e3e 25a1 b3be e8b4 ac3d b7f0 adbe
00000120: 1e07 3b3e 193b 60bd 227d 133d 4796 873c
00000130: c296 3dbe fa7a c53d cf9e 0f3e b9e8 75bc
00000140: 11e2 01bf 138c e13e 7149 f23e 6a62 89be
00000150: 3e2e 983e f700 83bd d6f7 c83e 982f 053e
00000160: 2d5a e43d 5f13 c0be d7f9 bc3e d81e cdbe
00000170: 7620 bc3c aeb3 4fbe f263 0fbe f77c 443e
00000180: 966a 163e b703 8ebe e692 f83e 8346 8d3d
00000190: 6087 f8b9 c51c 2d3f 52bd cabe 847e 0ebe
000001a0: 676e 1dbe 6f4e 023d 7575 993e 9cde 3fbe
000001b0: 00a8 ea3b ab03 d5bc c885 3dbe 2f02 be3e
000001c0: 0359 153e 5749 a8b9 a98c b0bd 68e6 443e
000001d0: df9f 3e3e 5cd5 ebbc cb2f 53bb 1530 2bbd
000001e0: b9a5 363e 8d90 9a3d eafe 993e 6804 9c3e
000001f0: eb01 0e3e b67a 823e da8c 21be a6e6 c3bd
00000200: 9092 dbbe 5918 c33e 9887 503f 25e8 8cbe
00000210: efa1 fe3e b0e8 f23d 64c1 dabe 7aca 7c3e
00000220: 8b5f a33e 7867 233e 2a72 a0be f928 1b3e
00000230: c391 173d 3d08 073d 955d 603d 04cd 2abf
00000240: c732 c53d d764 38bf 88dd 94be f147 353e
00000250: 8ff9 523d 4070 b03d cfc2 6dbd 865b c43d
00000260: def0 b23c f131 5e3e 02bf c1be be75 a3bd
00000270: 50d6 b6bb 7149 1dbf acfd a0bd 01c4 debd
00000280: 3300 58bd 09c2 cebe e625 2d3c f804 fcbd
00000290: 6956 153f 48ec cdbd cc93 cf3d 1ccd c6be
000002a0: 9264 153e 7366 07bf 946e b4bd 0191 44be
000002b0: 02a2 c73e 7d26 08bf f4a9 ae3e 9978 713e
000002c0: ba1f d33e e233 10bd b4a5 34bd 257b 563f
000002d0: 822c 823e 7dbd 5d3e f687 a83d 9951 f53e
000002e0: dae8 afbe 1739 c6be 6bb1 2fbe 299f 593e
000002f0: 27a9 653e aae3 9abd b5ca e5be e7b7 98bd
00000300: 4323 0fbe 2240 b3bd 5cd1 6dbe d940 1abd
00000310: 346a 003e 08cd cebe 8ba1 db3e e921 ca3e
00000320: 7a66 79be f1c1 d33d 1df0 c8bd d151 79bd
00000330: d833 07ba 8e32 54be 17a8 8ebd 2bd7 50be
00000340: 96b5 493e 099c acbd 90de 25bd 9bfe 5ebd
00000350: a91c 24be 52c5 88bd b4e7 59be 74d8 87be
00000360: d81e 51be aa7f ed3d 7016 6c37 19e1 7abe
00000370: c31c 65bd 26b0 09be b257 b73d a6c8 0cbe
00000380: 6776 0dbe 4c08 2dbb f249 74bd d484 66be
00000390: b945 83bd bc7f 113c 3266 00be c665 f93c
000003a0: 7d03 41be 2d12 333e 45bc 173d cbfd 42bd
000003b0: 7cd5 d2bd ba02 48be 74bf 6cbc f2d7 ed3d
000003c0: d2c0 e93d 828a bfbc da7a 3ebe 282d 95be
000003d0: db4d 0c3e ff56 63be 0231 30be 7643 bdbe
000003e0: 0309 afbd c072 0a3c 7c29 0a3d a0dd 28be
000003f0: 4ebe cebd ccf2 993b ab99 0fbe faf8 dabd
-0.121982306 -0.044659376 0.21350661 -0.020253394 0.12799577 -0.2796885 0.051719483 -0.3290677
-0.29033357 -0.18572289 -0.042207945 -0.23869406 -0.19010504 -0.4098086 0.4477511 -0.14692068
-0.22617269 0.1031726 0.0015626189 -0.10350483 -0.13793115 0.19784562 -0.13752165 0.17569302
0.055937443 -0.4126583 0.0686339 -0.06957601 0.21725613 -0.6385339 -0.24860044 0.14077224
-0.13578443 0.061859507 -0.2960173 -0.25675783 0.19178072 0.05884788 0.064521804 -0.10691216
-0.18124333 -0.43214977 -0.03630023 -0.34875762 -0.17382154 0.049429405 -0.1448753 -0.060084324
0.1876742 0.44038513 0.026383445 -0.19528127 -0.54422915 -0.12862039 0.024915403 0.35952485
-0.25327116 -0.26110804 -0.06742468 0.04054668 0.100367405 -0.21194091 -0.44532394 -0.005046101
-0.43720856 0.15165195 -0.10472104 0.17669493 0.17000246 -0.3508388 0.08432943 -0.33972713
0.18264434 -0.05474386 0.036008008 0.01655115 -0.18514541 0.096425965 0.14025424 -0.015009099
-0.50735575 0.4405218 0.47321656 -0.26832896 0.2972278 -0.063966684 0.39251584 0.13006437
0.11150012 -0.3751478 0.36909363 -0.40062594 0.022964697 -0.20283386 -0.1400297 0.19188295
0.14689097 -0.2773721 0.48549575 0.06898215 -0.00047403108 0.67622024 -0.39597565 -0.1391545
-0.15374146 0.03181308 0.29972425 -0.18737262 0.0071611404 -0.026002726 -0.18508065 0.3711104
0.14584737 -0.000320981 -0.08620579 0.19228518 0.18615673 -0.028788261 -0.0032224532 -0.0417939
0.17836656 0.07547102 0.30077296 0.30472112 0.13867919 0.25484246 -0.15776387 -0.09565477
-0.42885256 0.38104513 0.814569 -0.27520862 0.4973292 0.11860788 -0.4272567 0.24686614
0.3190883 0.15957439 -0.313371 0.15152349 0.037004244 0.03296684 0.054776747 -0.6671908
0.09628826 -0.7202887 -0.29075265 0.17703225 0.05150753 0.0861516 -0.058047112 0.09587769
0.02184337 0.21698739 -0.3784104 -0.07981442 -0.0055797473 -0.6144019 -0.07860884 -0.108772285
-0.052734565 -0.40382412 0.010568118 -0.12305635 0.58334976 -0.10054833 0.10135612 -0.3882836
0.14589146 -0.528907 -0.088101536 -0.1919594 0.3899079 -0.5318373 0.3411404 0.2358116
0.41235143 -0.03520573 -0.04410334 0.83781654 0.25424582 0.21654315 0.082290575 0.47913817
-0.3435734 -0.3871543 -0.17157523 0.21252121 0.22427808 -0.07562955 -0.44881216 -0.074569516
-0.13978295 -0.08752467 -0.23224396 -0.0376595 0.12540513 -0.403908 0.42896685 0.39478996
-0.24355498 0.10339726 -0.09811423 -0.06086904 -0.00051575666 -0.2072241 -0.06965654 -0.2039458
0.19698176 -0.08428199 -0.040495455 -0.05444203 -0.16026558 -0.06678261 -0.21279794 -0.26532328
-0.20421922 0.115966156 1.407192e-05 -0.2449993 -0.055935632 -0.13446102 0.089522734 -0.13748416
-0.13814698 -0.002640265 -0.059640832 -0.22511607 -0.06409783 0.008880552 -0.12538984 0.030444037
-0.18848987 0.17487402 0.037044782 -0.047605317 -0.10294625 -0.1953229 -0.014449943 0.11613454
0.11413731 -0.023381475 -0.18601552 -0.29136014 0.13701575 -0.22201155 -0.17206195 -0.3696553
-0.08546641 0.00845021 0.03373097 -0.16490793 -0.100948915 0.004698133 -0.14023463 -0.1069202

sequential/dense_2/StatefulPartitionedCall/StatefulPartitionedCall/MatMul_bias f4 [50]
00000000: df01 40be f745 a8be 16ec d8bd 9c26 32be
00000010: 9b37 18be 6c7e fa3d 9687 283d abd2 adbe
00000020: afb0 fb3b da97 89be 8be3 06be 55f9 99bd
00000030: 2eff 60bc 820e a4be 42a4 b4be 9334 acbe
00000040: 2210 b0be 6f36 30be bd82 32be edfe f6be
00000050: a38d c4be d13c b33d 4070 0fbe 9efa 99be
00000060: 4908 8abd 253e eabe 0499 cbbe 0a78 b2be
00000070: 0a40 04bf d195 d7be bbec 43be 9e99 7bbe
00000080: c312 ebbe 99d2 84be 5a8b 1a3e 2055 cdbe
00000090: 682a 5dbe fc1b dfbe d845 13bf 5d5b f03e
000000a0: e528 a6be 782c 2a3d 970d 5d3e 4fde ebbc
000000b0: fa81 f83d 70eb a3be ea9d 48be d8d0 db3e
000000c0: 487e 20bf a336 a5be
-0.18750714 -0.3286588 -0.10591905 -0.17397541 -0.14864962 0.12231144 0.04114493 -0.3394979
0.0076809744 -0.26873666 -0.13172738 -0.075182594 -0.013732715 -0.3204232 -0.3528157 -0.3363386
-0.34387308 -0.17208265 -0.17432685 -0.48241368 -0.3838931 0.08751834 -0.14007664 -0.30074018
-0.067398615 -0.45750538 -0.3976518 -0.34857208 -0.51660216 -0.42106488 -0.19133274 -0.24570319
-0.45912752 -0.25941923 0.15092221 -0.40104008 -0.21598208 -0.43576038 -0.5752845 0.46944705
-0.32453075 0.041546315 0.21587215 -0.028792528 0.12134166 -0.32015562 -0.1959149 0.42932773
-0.6269269 -0.32268247

sequential/dense_3/StatefulPartitionedCall/StatefulPartitionedCall/MatMul/ReadVariableOp/transpose f4 [25, 50]
00000000: 0ea9 453d 745f 7b3e b8ae 783e 8ede 3cbd
00000010: 5c61 02bc 84e7 8ebe 18b8 9c3e e5b0 4a3c
00000020: 8bb8 56be cd2f e5be f86b d9be 52bc 9e3c
00000030: cd65 6c3d 4a07 703e 3b7f c0be abdd 8ebe
00000040: cc24 983e 4045 4b3f 2853 04bf 77de afbe
00000050: c4a3 f9bd e01b e33e 2d2e 9b3e 8abe dcbd
00000060: 874a 77be 5ddf ca3e 98c2 9abe 556b 06be
00000070: a2d6 49bc 3b4e ad3d c82a f73e c7c2 07bf
00000080: 1032 a0bd 4a23 f33e c5e3 91be 5431 abbd
00000090: a3b2 2b3e 942f cd3e 7991 073d 6ca1 3b3e
000000a0: aabe f13e 983d 243e 97bf 6cbd c6c6 283e
000000b0: 0197 b9be e976 adbe 6f0f 913d d9b4 9e3e
000000c0: 2e89 5e3e d944 a63e 7bf5 3bbf 3c58 babe
000000d0: 6835 93bd 61af cabd 4091 253d 16f2 b23c
000000e0: 5d57 aebe 75a2 e53d a5c4 433e 55ef 30be
000000f0: c85b 01be 008c fd3b 5342 a03d d113 cf3d
00000100: 9dd4 59be cf97 a0be ce50 6b3d d7f4 fdbe
00000110: 9fb2 ee3c 340f bfbe 5bf8 fcbd a1f6 51be
00000120: fc9f e2be e6fe 40be 38c5 85be 9034 0b3e
00000130: 55ae 6bbe 70ce c6bd a344 983d c3a4 1dbf
00000140: ea8c 86be 003c a9bc 6905 87be e7f9 663c
00000150: e079 9e3d c03b 81be fc80 d8be 7dd9 8b3e
00000160: cfeb 08bd 544b 9cbe 53a4 ccbc b725 943d
00000170: fc93 5c3c 422c 8cbe 636e 373f cdac e2be
00000180: c213 0abf 17bf e5be dcee cabe 1f38 8f3e
00000190: 0a81 0bbe 00c8 543e 92ec 713d 78f0 65bc
000001a0: 2609 a93e f988 bd3e fbf8 7fbe 5757 833e
000001b0: 5e01 b63e 2ed4 413e 7b70 fdbe cdf3 b13d
000001c0: aaa0 60be fc8f 56be 3146 b73e 0ad7 55bd
000001d0: 2568 67be 1319 9abe aa04 2b3e 2515 173e
000001e0: b776 babe 19ce 913d 33ce 503e 7132 0fbe
000001f0: 4f21 c1be 747b c83e 1529 313e b324 d9bd
00000200: 6552 433f 278e 733e ddf6 94be 4111 f93d
00000210: 2ec0 7d3d 1602 bdbe ffe8 0e3e 3ea7 50bf
00000220: ec66 3abf c1d1 4ebd 5818 95be 3350 8f3e
00000230: 3471 d9be 5b5b 5fbd 3456 f73e 9802 33bd
00000240: 4467 073f 8d14 bdbe c700 b53e 3814 223e
00000250: 7730 23bd 6a38 b13d d2af 20be 72a2 43bd
00000260: be77 203e 3a27 c4be aeb4 cf3d 7c83 29be
00000270: baa8 1fbe b0cf 2cbe 6eed e13e 5d24 75be
00000280: 8352 fcbd 56f5 d6bc 2be3 3a3e cc1b 803e
00000290: a90f 83be 141b 55be 1240 c2be 5794 f1be
000002a0: 7953 a1be 7470 333e f12a ba3d 902d f2be
000002b0: 0a69 583e 0ee9 e1bd 90cc ab3d 1416 da3d
000002c0: a2df 903d 249f 663d 5aa1 4ebd ece4 6bbe
000002d0: ac2b b2bc eb38 b0be 2a54 bebc 05ae 6d3d
000002e0: 62de ef3c 41a5 5d3e e349 023f 0c53 f8bc
000002f0: 8eab d93e 91a4 92be b3a6 5a3e b104 6cbe
00000300: 99e5 b83e e051 53be 8d75 a7be 9e6e f3bd
00000310: e197 8fbe 9cb9 6abe 1d00 2fbf c223 633e
00000320: 8f6e 963d 637d 2d3d c025 593e f681 eb3e
00000330: 2802 433e ddb0 35bd d0d1 81be bbdd 653c
00000340: d264 b8be 8e99 62be 2acf 433f 8703 ce3c
00000350: a8aa ed3e 1dc7 ee3d c13a aabe d061 9fbe
00000360: b635 b3bd 9cb6 623e cf7d 543e f04f 35be
00000370: c405 03bf f8f6 42be f5e2 673e 5b9c 06bf
00000380: 2d08 a13e 9dcf 95be e5f4 7b3e 9c7c 1e3e
00000390: ddde a4be 276a 87bd 56f2 b13d d6d8 b93e
000003a0: 70b5 07bf aada a73d d6c2 09be b028 013c
000003b0: b6f1 1c3d bea2 703e 204a 853e 5e5f 8bbe
000003c0: 1f0e 2fbd 7700 1d3f 47bf 12bf 4186 a93e
000003d0: cf7d b1be 550a 993d a70b 8bbe 3f9c a3be
000003e0: 26b9 2e3e b2d8 913e 2ee9 553e 35d2 acbd
000003f0: 25f1 84be 667e 24bd d981 35bd 25cc acbe
0.048256926 0.24548131 0.242854 -0.046110682 -0.007957783 -0.27911007 0.30609202 0.0123712765
-0.20968835 -0.44763032 -0.42465186 0.019376907 0.057714272 0.2344028 -0.3759707 -0.27903494
0.29715574 0.7940254 -0.51689386 -0.34349415 -0.12189439 0.44357204 0.30308667 -0.1077853
-0.24149524 0.39623538 -0.30226588 -0.13126881 -0.012319239 0.08462187 0.48274827 -0.5303158
-0.07822049 0.4748786 -0.28494087 -0.08359018 0.16767363 0.40075362 0.033097718 0.18323296
0.47215778 0.16039121 -0.0577999 0.16482076 -0.3624802 -0.33879784 0.07083022 0.3099735
0.21732017 0.32474402 -0.7342145 -0.36395442 -0.07187921 -0.09896732 0.040421724 0.021843951
-0.34051028 0.11212627 0.19117983 -0.17278798 -0.12632668 0.0077376366 0.0782515 0.101112016
-0.21272512 -0.3136582 0.05745011 -0.4960086 0.029137908 -0.37316287 -0.123520575 -0.20504238
-0.44262683 -0.18847236 -0.26127028 0.1359427 -0.23015721 -0.097073436 0.074349664 -0.6157953
-0.26279384 -0.020658493 -0.26371315 0.014097667 0.077380896 -0.25240898 -0.42285907 0.27314368
-0.03342801 -0.3052622 -0.0249807 0.07233756 0.013463017 -0.27377516 0.7165281 -0.44272462
-0.539364 -0.44872352 -0.3963536 0.27972504 -0.13623443 0.20779419 0.0590635 -0.014034383
0.33014792 0.37018564 -0.24997322 0.25652573 0.35547918 0.18928596 -0.49499878 0.086890794
-0.21936288 -0.20953363 0.3579574 -0.05220703 -0.22598322 -0.30097255 0.16700998 0.1475416
-0.36418697 0.07119388 0.20391159 -0.13984086 -0.37720725 0.39156687 0.17300828 -0.10602703
0.762976 0.23784696 -0.29094592 0.12161494 0.061950855 -0.36915654 0.13956068 -0.8150519
-0.72813296 -0.050493006 -0.29120135 0.27990875 -0.4246918 -0.054530483 0.48307955 -0.043703645
0.52891946 -0.36929742 0.35352156 0.15828025 -0.03984114 0.08653338 -0.1569207 -0.04776234
0.15670678 -0.38311177 0.10141884 -0.16554064 -0.15591708 -0.16876101 0.44126457 -0.23939653
-0.12320425 -0.026240032 0.1825072 0.25021207 -0.25597885 -0.2081111 -0.37939507 -0.47183487
-0.31508997 0.17523366 0.09090222 -0.47300386 0.21133819 -0.1103078 0.083886266 0.10648742
0.070739046 0.056304112 -0.050446846 -0.23036546 -0.02174934 -0.34418425 -0.023233492 0.058027286
0.029280845 0.2164507 0.5089399 -0.030313037 0.42513698 -0.2864118 0.21352653 -0.23048665
0.3611267 -0.20636702 -0.32706872 -0.11886333 -0.28045562 -0.22922367 -0.6835955 0.2218161
0.07345306 0.042355906 0.21205807 0.4599759 0.19043791 -0.044358123 -0.25355387 0.014029915
-0.3601442 -0.22128889 0.7648798 0.025148166 0.46419263 0.116590716 -0.3324795 -0.31129313
-0.08750479 0.22139972 0.20751117 -0.17706275 -0.5118067 -0.19039524 0.22645171 -0.5258233
0.3145155 -0.2925996 0.24605139 0.15477222 -0.3220128 -0.06612044 0.086888 0.36298245
-0.53011227 0.08196004 -0.1345323 0.007883236 0.03831645 0.23499581 0.26033115 -0.27221197
-0.042738076 0.61328834 -0.57323116 0.3311024 -0.34666297 0.07472674 -0.27157328 -0.31955144
0.17062816 0.28485638 0.20889732 -0.08438531 -0.2596523 -0.040159605 -0.044313285 -0.337495

sequential/dense_3/StatefulPartitionedCall/StatefulPartitionedCall/MatMul_bias f4 [25]
00000000: 00a1 50be ec61 15be 4ca6 403e 50a4 42be
00000010: d492 e03d 916b c9be 2cc4 a3be f1c4 623f
00000020: 99b9 ba3d 15f7 f0be f7c8 213e e2b8 ccbe
00000030: f2c9 06bf 6ec8 6cbe 7c10 4e3e 5f76 babe
00000040: 2dc1 bebe d19a 103f bb25 cebe a6a6 dbbe
00000050: 450a 69bd 4a31 b4be 934e ebbe ac74 fcbe
00000060: 6e39 d3bd
-0.20373917 -0.14588135 0.18813437 -0.19007993 0.10965505 -0.3933988 -0.31985605 0.8858176
0.09117431 -0.4706351 0.15799318 -0.39984804 -0.52651894 -0.23123333 0.20123476 -0.36418435
-0.37256756 0.5648623 -0.4026316 -0.4290058 -0.05689456 -0.35193855 -0.45958385 -0.49307764
-0.10313688

sequential/dense_4/StatefulPartitionedCall/StatefulPartitionedCall/MatMul/ReadVariableOp/transpose f4 [11, 25]
00000000: 2714 49bf 855f 57bf c638 c6be 06c4 a33e
00000010: b478 a23e 2b36 b1be 9622 853e 221d 80bf
00000020: 586a 493d 849b d2be 6545 51bf c639 90be
00000030: 8b2c af3e be75 efbe d7a0 3b3e 179a e2be
00000040: 3b05 3dbf d66c 1c3e 4598 0dbf 5927 4bbe
00000050: e045 bcbe 2fe5 6f3e b748 b9bd 8e3f 51be
00000060: c4c0 3ebd 2732 78be 36b9 f3bd eaec 20bf
00000070: c076 5a3e 5143 143e 5c3f 8dbe 2558 2d3d
00000080: 0142 85be 47b6 96be 4134 c7bd 2f94 22be
00000090: e099 a0bd d8da 59be fc25 d2bd d873 033e
000000a0: e490 e7be 4c25 8bbe 9fdf c03e 2eee cc3d
000000b0: e545 15bf 24be 8a3e 33a1 9bbe 2e8f 08be
000000c0: a4a2 89bd 15c5 12be 7f19 e2be c48e 88bc
000000d0: 5f88 64be 09ff 413e cac1 74be 175a 6b3e
000000e0: cc23 303d 86fe 01bf fdb4 63bf 3df5 1bbd
000000f0: 250f ee3e 7b79 95be 7325 e0be 3dc5 b4be
00000100: d90f 41bf 5218 82be 6913 20be 1177 893d
00000110: 074a 843e ff18 98bd 6aaf d8be 10e7 0cbf
00000120: 1031 863e 2999 d43d 0081 5fbe 4a7e 85be
00000130: d417 52bd ed3f 75bf fb35 9b3e f21e 8abe
00000140: 4562 1dbf e2a6 dabd eeea cfbe b5e9 44bf
00000150: a7fc 9e3e 0a2a dfbe cce7 203f f22a d33d
00000160: 6fb0 81be 72ed 883e 08d0 27bf 063d 10bf
00000170: 2867 c7be a0d3 093f 2e2a 66bf a726 113e
00000180: fa4d dd3e a1e7 0a3f e6b7 a93e 396e 32bf
00000190: 80ea 15bf fe54 72be 799a cebe 5e02 173e
000001a0: 7cf9 253f 379c 703d 73e6 9bbd 29ad 3ebd
000001b0: 41d2 0abf 8842 43bf 54e3 1abf 36f2 7cbe
000001c0: 4838 22be a0dc 80be fa45 0ebf 6fa0 c7be
000001d0: f2fc 03bf 1236 37bf 7bb5 e83d 2185 263e
000001e0: ce38 92be e57b c93d fb9c 5abf fe1d 84be
000001f0: efe4 8c3e 8d1e dd3e 1ab3 14be faf5 42bd
00000200: ae1b 1cbe 50f9 923e 492e b13e 67aa 35be
00000210: 5963 dbbd 19ed 53bf 1522 c6be efe3 683e
00000220: 4cb3 0fbf 56d4 41be 54ef 293d 459e f2be
00000230: c4d2 9a3e f054 33be 89a3 96bf 217f bcbe
00000240: 698f 1fbf fdd7 c0bd c3bc 51bf d628 c3be
00000250: 0435 9fbe ea97 283e 1abe e8be ad16 6cbf
00000260: fc99 fb3e aef7 3ebf 07ba 0dbf f895 bcbe
00000270: 468c 24bf 9f4d aebd 7d9a 7d3e 769a 9e3d
00000280: 6ed4 83be abdd 58be 46ae e3bd c858 ee3d
00000290: 5057 163e 8968 763e 58ca 823d 6f5c b5bf
000002a0: a1b4 d7be 5de6 8a3e f8d1 873e 9b0f 83be
000002b0: 22e8 ef3b 8f31 78be 3e7b f6be 99d3 943e
000002c0: 4fea d5be 8b25 64be 099a a33c 7c9b 3dbf
000002d0: 2317 50bf 36a8 62be 3522 c93e 207b a8be
000002e0: 9288 02bf d602 a8bd 3049 b3be f1e0 3cbc
000002f0: eb3e c9be 2133 a23e ee3c 2ebe 5fb6 603e
00000300: 7a05 44bf 0461 74be 42f8 23bc 8822 0ebd
00000310: f3e3 febe bf1e 6dbe ef6a 923c 87c5 3abe
00000320: e852 853e 0e2a 8a3c 2c33 593e 007a 05bf
00000330: 916d 9ebe 06f1 2e3f 349b 933a 29f5 7cbf
00000340: e60c 33be abe2 a1bc 0ea7 42be 6fad 97be
00000350: 8044 ed3e adcf ecbd 6ba4 18bf c625 4e3e
00000360: 3399 c13e 2114 2bbf f71b 8abc f3e7 2fbd
00000370: f0db babe 002e b4be 8899 a7be 89f5 fbbe
00000380: f03a 5c3d 8abb 553e c9dc 87bc afed 24bd
00000390: d1f2 5bbf 3fe2 c53d 889c 3fbe 09d3 65bf
000003a0: a2b0 4bbb 7dab 143e b12c 383d b84c 42be
000003b0: 1e07 b4bd d349 e93d 285a a2be a185 1dbe
000003c0: 9ac2 843d e52c f3bc c9be ddbe b12b f9bd
000003d0: 47df 81be e55a 943e 3299 e33e 34e6 9cbe
000003e0: ce78 6fbe c18b d2be f6a1 c4be b9d3 a73e
000003f0: d2b6 873e 24fe 15bf 1ce0 2ebf c711 5fbf
-0.78546375 -0.84130126 -0.3871519 0.31985492 0.31732714 -0.3461164 0.2600295 -1.0008891
0.049173683 -0.41134274 -0.8174651 -0.28169078 0.3421367 -0.46769518 0.18323074 -0.44258186
-0.73836106 0.15275893 -0.5531047 -0.19839229 -0.3677206 0.2342727 -0.090470724 -0.204344
-0.046570554 -0.24237882 -0.119005606 -0.628615 0.21334362 0.14478804 -0.27587402 0.04232039
-0.2602692 -0.29435942 -0.097267635 -0.1587684 -0.07841849 -0.21274889 -0.10261151 0.1283716
-0.4522773 -0.27176893 0.3767061 0.10006367 -0.58309776 0.2709819 -0.30396423 -0.13335869
-0.06720474 -0.14332993 -0.44160077 -0.016669638 -0.22317646 0.18944944 -0.2390205 0.22983585
0.04300289 -0.50778997 -0.8894804 -0.038075674 0.4649593 -0.29194245 -0.4377857 -0.3530673
-0.75414807 -0.2540918 -0.15632404 0.06712163 0.25837728 -0.074266426 -0.4232133 -0.55040073
0.26209307 0.103807755 -0.21826553 -0.26072913 -0.051292256 -0.9580067 0.3031462 -0.26976734
-0.6147807 -0.106763616 -0.40608925 -0.7691911 0.31052133 -0.4358676 0.62853694 0.103109255
-0.2532992 0.26743656 -0.65551805 -0.56343114 -0.3894589 0.5383854 -0.8990811 0.14174901
0.43223554 0.5425969 0.33148116 -0.69699436 -0.58560944 -0.23665234 -0.40352228 0.14746997
0.6483381 0.058742728 -0.07612314 -0.046551857 -0.5422707 -0.76273394 -0.60503125 -0.24701771
-0.15841782 -0.25168324 -0.55575526 -0.3898959 -0.5155784 -0.7156688 0.1136274 0.16261722
-0.28558964 0.09838084 -0.85395783 -0.25804132 0.27518412 0.4318737 -0.14521447 -0.047597863
-0.15244934 0.28705835 0.34605625 -0.17740785 -0.107123084 -0.8278366 -0.38697878 0.227432
-0.5613296 -0.18928656 0.041488007 -0.47386375 0.30238926 -0.1751287 -1.1768657 -0.36815742
-0.623282 -0.094161965 -0.8192865 -0.38117093 -0.31095135 0.164642 -0.45457536 -0.922221
0.49140918 -0.7459668 -0.5536198 -0.36833167 -0.6427654 -0.08510899 0.24765964 0.07744305
-0.25748008 -0.2117831 -0.111172244 0.116380274 0.14681745 0.24063314 0.0638625 -1.4168833
-0.42129996 0.27128878 0.2652738 -0.25597844 0.0073213736 -0.24237655 -0.481409 0.29067686
-0.41780326 -0.22279947 0.01997091 -0.74065375 -0.81285304 -0.2213448 0.3928391 -0.32906437
-0.5098964 -0.08203666 -0.35016775 -0.01152824 -0.39305815 0.31679633 -0.1701543 0.21944569
-0.76570857 -0.23865134 -0.01000792 -0.0347009 -0.49783286 -0.2315626 0.017873256 -0.18239413
0.26039815 0.016865756 0.21210927 -0.5213928 -0.30942968 0.6833652 0.0011261464 -0.98811585
-0.17485389 -0.019761404 -0.19009039 -0.29624507 0.46341324 -0.115630485 -0.5962588 0.20131597
0.37812194 -0.6682759 -0.016859038 -0.042945813 -0.36495924 -0.35191345 -0.32734323 -0.49210766
0.053767145 0.20872322 -0.01658477 -0.040265735 -0.85917383 0.09662294 -0.18712056 -0.8977514
-0.0031080623 0.14518543 0.044964496 -0.18974578 -0.0879042 0.11391034 -0.3170941 -0.15383007
0.0648243 -0.029684493 -0.4330962 -0.121665366 -0.2536566 0.28975597 0.44452816 -0.3064438
-0.23385927 -0.4112225 -0.38404816 0.3277872 0.26506668 -0.5859091 -0.68310714 -0.871365

sequential/dense_4/StatefulPartitionedCall/StatefulPartitionedCall/MatMul_bias f4 [11]
00000000: 8af6 f5be 1e3b f93e 9487 eebe b1c2 dabe
00000010: 316d f63d 310c a1be b5ce 85bd ad15 f63d
00000020: 3722 03bf fdd5 d63d 3745 323f
-0.48039657 0.48677915 -0.46587813 -0.42726663 0.12032545 -0.31454614 -0.06533567 0.12015853
-0.5122408 0.10490034 0.69636863
